model/pose_predict.pth (torch, 249539 bytes, 10 tensors)

conv1.weight f4 [6, 3, 5, 5]
00000000: b08f 71bc 3aae c9bd 542c 83bd b8ab 74bd
00000010: c017 b43c df0d d9bd 2ad1 85bd 860f d7bd
00000020: fcc7 a73d 7400 b7bc 54d8 0ebd 7559 76bd
00000030: 7e46 b0bd 6bbf ebbd 54d5 dfbd d032 a03d
00000040: a096 1fbc 661b a43d fea5 a9bd 98c1 e0bc
00000050: a0a5 323c f07c 9bbb 5600 e4bd 8884 533d
00000060: e4b1 95bd 5b71 eabd a477 623d c0c7 2dbd
00000070: f2d5 b3bd fc86 833d a8fc cb3c 523f 8ebd
00000080: 6a61 8f3d 2879 c73d 7625 8b3d 7026 d5bb
00000090: 01f0 75bd ba07 23bd b01c debd c01f 533c
000000a0: 7c9f c3bc 2cde b03d 384f 873d d8c8 623d
000000b0: 101b 163c a5c2 c6bd 9e05 0cbd f05e 033c
000000c0: 8023 8f3c c414 d33d fa82 cf3d d01e aebb
000000d0: 308c 3b3d f08a 193d a54f 65bd d039 c0bd
000000e0: 680d a8bd b466 99bc f000 a3bb fc23 273d
000000f0: b047 0ebd 2001 5d3d 0006 b53d 60ef 56bc
00000100: 3bdb d5bd 107c 913b 6649 813d 4817 1f3d
00000110: 2eb9 8a3d 604b b13b 04da 4f3d 5cec 4b3d
00000120: 9a52 2bbd f8c1 6a3d fbf7 bdbd 144a 88bc
00000130: 9f8e e5bd 5807 8f3c 5409 96bd 079f dfbd
00000140: 60c5 39bc c251 af3d 9895 ba3d 5c55 793d
00000150: f416 b3bd 00b0 e43b cebf 1dbd 0840 a7bc
00000160: 40e0 00bd a003 2ebd a84b a93d 44f9 8abd
00000170: 0420 93bd dcb0 a23d b65d 87bd 4cd6 d53d
00000180: a8a0 753d 2020 52bc 70eb a9bd 1e72 873d
00000190: 9213 973d 342a dd3d 0652 aabd 085f 293d
000001a0: de30 be3d 7bc3 d8bd 42a6 883d 0aa5 afbd
000001b0: a57b c6bd d06d f6bb 1471 683d b5c3 a2bd
000001c0: f002 8b3b 0017 55bb 86f0 e3bd 8060 fa3c
000001d0: 682c cebd f22e e6bd 426b 8b3d 40b3 b03d
000001e0: 54cc e6bd 8402 aabc e40a 0abd 984f bdbc
000001f0: 32df e73d fc12 093d b804 7ebd b078 f23b
00000200: f0eb 8c3b a0f6 b03d 08e4 eabd fe53 a33d
00000210: e04c 993c 908d ad3c 000b ba3c 685a 5b3d
00000220: 120d 1ebd 3089 393d 30c7 5d3c 3a95 a5bd
00000230: 809c 483c c27a 98bd 14fa 373d c8ce c2bd
00000240: 7830 1a3c 4a60 91bd 381d 453d 78f3 253d
00000250: 34dd bebd d4ef 173d c98f d23d 9f58 943d
00000260: 3318 263d 800f 793c dccd 45bd 90ec bfbb
00000270: f147 783d 4880 9d3d a157 aa3d 8214 b43d
00000280: 46aa 8d3d a894 70bc e04b c43d c85b f3ba
00000290: f0b4 f0bc f875 7a3d d0c3 bfbc 3026 803c
000002a0: 7e80 ed3c 3043 d83d 308f f7bd 9e32 943d
000002b0: 046c 81bd f121 563d 44df 773d 8dc6 01bd
000002c0: 05d1 7fbd ebd4 50bd 723c 723c 607d 0a3e
000002d0: 7cbe e0bd 7dd6 45be a4ad 65bc f3ce 83bd
000002e0: 47ab 90bd 2bfb 953d ecf5 a3bd c7c8 14be
000002f0: 2cf3 49bb 326e df3d 7e9a e0bb 00fb 8a3d
00000300: a202 6a3d e1eb d5bd 7e34 07bd cb33 b2bc
00000310: cb12 bb3c 91d9 16bd 42cf 683d 177b 8ebd
00000320: 6cc9 323d 38ad d43c 3e43 91bd 6f49 bb3d
00000330: 456b 083e 8fd6 0e3d ff3b 2cbe 1f55 13be
00000340: 1af0 3a3d ac7e 06bc cea7 9a3d b574 3bbe
00000350: 4b98 a7bd a16d dabd 0567 f7bc cb3c a6bc
00000360: 1afa 14be 098c 07be 8b79 313d 36a6 543d
00000370: f644 10bd 15e9 e7bd 6e41 24be f4b3 f7bd
00000380: fcbd 303d abf0 36bd 81f8 b1bc 1002 81bc
00000390: 3476 8abc 7fea 0e3e 5091 a13c f867 f4bc
000003a0: dec6 3bbd d8e3 a0ba 9285 b83d ac8b 7e3c
000003b0: 7a9d 013d 3a8e f23c d2b5 983d 13b0 21bd
000003c0: 8d95 d53d 8005 983d 3929 3a3d 3abf dd3c
000003d0: 17a1 6c3d eec4 703b ec4f a43d 7cd8 043d
000003e0: 3a3b 6f3d b15d 3fbd a6e6 aebd 0ba7 1fbe
000003f0: 27e3 3cbe 9e50 a33d 7978 5c3d 16a3 a3bd
-0.01474373 -0.09847684 -0.06404939 -0.059734076 0.021983981 -0.10598349 -0.065340355 -0.10501008
0.08192441 -0.022339083 -0.034874275 -0.060143907 -0.08607195 -0.115111195 -0.10929361 0.07822192
-0.009740502 0.08013038 -0.082836136 -0.027436063 0.010903746 -0.0047451183 -0.111328766 0.051640064
-0.073093206 -0.11447402 0.05528988 -0.042426825 -0.08781041 0.064222306 0.02490075 -0.06945671
0.07001002 0.097399056 0.067942545 -0.0065048262 -0.06004334 -0.03980229 -0.108453155 0.012885988
-0.023879759 0.08636126 0.06606907 0.05536732 0.009161726 -0.09705094 -0.034185044 0.00801824
0.017472982 0.10306695 0.10132404 -0.0053137317 0.04578799 0.037486017 -0.055984158 -0.09386027
-0.08205682 -0.01872573 -0.004974477 0.0408058 -0.034736335 0.05395615 0.08839035 -0.013118595
-0.104422055 0.004439838 0.06312828 0.038840562 0.067736015 0.0054105967 0.050745025 0.049785957
-0.041826822 0.05731389 -0.09275814 -0.016636886 -0.112088434 0.017459556 -0.07325998 -0.10919004
-0.011338562 0.08560516 0.09110564 0.06087242 -0.08744612 0.0069789886 -0.038512997 -0.020416275
-0.03146386 -0.042483926 0.082663834 -0.06785825 -0.07183841 0.079438895 -0.06609671 0.104412645
0.059967667 -0.012825042 -0.08296859 0.06613563 0.073767796 0.10799065 -0.08316426 0.041350394
0.092866644 -0.1058416 0.06672336 -0.085764006 -0.09691552 -0.007520415 0.056748465 -0.079474844
0.0042422935 -0.003251493 -0.111298606 0.030563593 -0.100670636 -0.11239423 0.06807567 0.08627939
-0.11269441 -0.020753153 -0.033701792 -0.023109242 0.11321868 0.03346537 -0.06201622 0.007399641
0.004300587 0.0864079 -0.11469275 0.079750046 0.018713415 0.021185666 0.022710323 0.053553015
-0.038586684 0.045296848 0.0135362595 -0.08085103 0.012244344 -0.07445289 0.044916227 -0.09512097
0.00941097 -0.07098444 0.04812357 0.040515393 -0.09319535 0.037093952 0.10281331 0.07243466
0.040550422 0.015201449 -0.048292026 -0.005857058 0.060615484 0.07690483 0.08317495 0.08792974
0.06917243 -0.01468388 0.095847845 -0.0018566782 -0.029383153 0.06114766 -0.0234088 0.01564321
0.028991934 0.1055969 -0.12087858 0.07236217 -0.063194305 0.052278463 0.060515657 -0.031683493
-0.062455196 -0.050984304 0.014784919 0.1352439 -0.10973832 -0.19320102 -0.01401845 -0.06435957
-0.070639186 0.07323297 -0.0800589 -0.14529715 -0.0030815108 0.1090969 -0.0068543544 0.06786156
0.057131417 -0.10445381 -0.033009045 -0.021753212 0.02283611 -0.03682858 0.05683828 -0.06957071
0.043649122 0.025961503 -0.070929036 0.09144866 0.1332217 0.034872588 -0.16819762 -0.1438794
0.045639135 -0.008208912 0.075515375 -0.18306239 -0.081833445 -0.10665441 -0.03020049 -0.02029266
-0.14548531 -0.13237013 0.043328803 0.051916324 -0.035222016 -0.11323754 -0.16040584 -0.1209487
0.043149933 -0.044663113 -0.021724941 -0.015748054 -0.016902067 0.1395664 0.01972261 -0.029834732
-0.04584395 -0.0012274934 0.090098515 0.01553623 0.031644322 0.029608835 0.074565545 -0.039474558
0.10428915 0.07422924 0.04544947 0.027068723 0.057770815 0.0036738473 0.080230564 0.032433018
0.058406092 -0.04672021 -0.085400864 -0.15591066 -0.18446027 0.07974361 0.05382583 -0.079900905

conv1.bias f4 [6]
00000000: ca00 83bd 200f 663c 63bd a83d ca75 c3bc
00000010: 4a36 063d 6472 7c3d
-0.06396635 0.014041692 0.08239248 -0.023859877 0.032766618 0.06163253

conv2.weight f4 [16, 6, 5, 5]
00000000: bcce 363d 0dbf 6fbd 40fe bc3b 8042 203b
00000010: 28bf 663c 2455 6e3d 0048 2ebc d0da aebb
00000020: 3e02 073d 68dc 3a3d d83c 8bbd a8e1 3cbc
00000030: 709b aa3c 90cc 2fbc 7c1c 9a3c e01a 273c
00000040: f045 813d f274 0ebd 2082 6b3b 3a88 a43d
00000050: 2070 36bd 76f6 31bd 708a 0dbd 0808 5a3d
00000060: 40c3 91bc d07c b73b 1892 843d 9aa3 253d
00000070: ec06 8abd 0833 5f3d 0ca3 91bc a6e4 95bd
00000080: 18c5 29bc f8e7 133c 7049 dc3c 6925 82bd
00000090: 0e56 d2bc b0b9 6cbc 91e0 39bd b037 0fbc
000000a0: 9c1d 943d a438 813d 70a3 90bb c036 ffba
000000b0: 9ad7 a4bd 40f2 8a3c 1042 cd3c 1c51 8bbd
000000c0: 5f7c 04bd 14dc 573d aa27 eabc 77fe b4bc
000000d0: 7233 3939 d97d 0abd b122 ebbc 8b88 573c
000000e0: 399c a4bd d8be 1ebd 2057 14bc fe0a 80bd
000000f0: 543a 81bd 7c10 a0bd 3dfb d3bb 99d8 87bd
00000100: 9a36 773d abfc 50bd b250 9dbd 46ed f03c
00000110: 88e9 cfbc 684f 433d ef9f 52bd 747e 98bd
00000120: f0b4 09bc 8467 80bd 4369 15bb 389e a93c
00000130: fc53 903c d1cf 883d 4967 dc3c 6e69 ec3c
00000140: bc5f 2c3c 8a0c 72bd 4a4f 8b3b 3307 22bd
00000150: c2da e3bb 82e6 92bd 826d 79bd 7144 4abd
00000160: 9be1 3dbd 329a 943d 43e9 9a3d 8e2f 3d3c
00000170: d62d 5e3c 7a7b 18bd 1479 dabc b622 24bd
00000180: de5b 0fbd 54cb 8dbd 4772 77bd 67e5 9d3d
00000190: 8418 aabd b2d4 1d3d 4ede 6f3b 0337 9c3c
000001a0: 5c2e 593d 979c 8c3d 5392 81bd b539 6ebd
000001b0: 7fbc 093d bca9 433d 7044 c83c 1437 07bd
000001c0: 72c8 c7bc 0684 82bd 6e31 87bd b0dd 7abd
000001d0: 8550 0d3c e441 8cbd 8322 723c ac29 3ebd
000001e0: d22d 50bd 0847 873d c4f9 9ebd a002 753d
000001f0: 8252 dcbc d479 883d b08b 543d 3297 66bd
00000200: 5b56 5ebd d0f7 dbbb 838c 21bd 7050 01bd
00000210: 9ee6 8ebd 248e ce3c d249 2d3d 0235 873d
00000220: 1b49 88bd 5a74 5ebd 845a a2bd c2e8 a6bd
00000230: 8273 87bd 6280 d8bc 3f7b 57bd 07fd 4abd
00000240: bc2c f2bc eab6 31bd 7039 a7bb 708c 8ebb
00000250: ec1d 93bc d2c4 80bd 90c4 29bc 9458 013d
00000260: 38d4 853d 98f5 d43c 4442 a4bc 4eb1 9cbd
00000270: 5c20 a03c 70b0 ec3c 107c 783d 60d4 2abd
00000280: 608d 87bc 30be 573c c899 3ebc 4be6 1bbd
00000290: f48a 91bd f0b4 363c d418 813d 4a48 9d3d
000002a0: 0812 23bd c498 91bd d430 b2bc fc4d 403d
000002b0: 16f3 07bd 88f3 0b3c 00c8 e8b9 142b 643d
000002c0: d25c 4dbd fcb5 673d 80db 2cba 709f abbc
000002d0: a898 80bc 60f0 493d 06fd 9abd 9875 b23c
000002e0: 2a41 90bd b212 a5bd a42b 343d 12ed 0d3d
000002f0: e0c9 7bbb cc9e 8f3c bc5d 9d3c ca7e 6fbd
00000300: 04fa f53c 28e3 16bc f007 1f3d 2a47 9abd
00000310: c836 883d 38b1 c5bc 4a2b 203d 60a4 153d
00000320: da93 32bc 2e3c a1bd 2077 533d 0c61 853c
00000330: cc19 303d b9a3 49bd 17a2 37bb d1b3 87bd
00000340: 6e89 d43d 249a 503d b288 233d c956 653c
00000350: 2c74 a33d 9292 5b3d 5001 3cbd efa2 7c3d
00000360: e366 173d 1f37 303d eb6a 6b3d 8bb5 2bbd
00000370: 5466 27bd 0daf c6bd 32f2 87bd 6d52 be3c
00000380: 2c7e 3d3d ab46 253d b362 9cbd 37a5 903c
00000390: 6bf8 833d abcf 22bc 38f1 dbbc 0538 3cbd
000003a0: dda8 50bd 110b 9d3d 7e2d c43d 6b32 07bd
000003b0: 2a56 80bc 4972 2a3d a602 d5bc bdeb 873c
000003c0: b9c8 91bd 8f51 aa3c 0f7d cabb 2d65 4f3d
000003d0: f10c 4cbd 4ae7 4bbd bcf3 66bd 111d 493d
000003e0: fbb3 bc3d cd8e a03d 46e5 963a 5847 053d
000003f0: ef70 9dbd ff06 9bbc ad02 963d 4ad1 6bbd
0.04463075 -0.05853181 0.0057676136 0.00244537 0.014083661 0.058186665 -0.010637283 -0.005336143
0.032961123 0.045620352 -0.067987144 -0.01152841 0.020826072 -0.010729924 0.01881241 0.010199279
0.06312168 -0.034779496 0.0035935715 0.08033796 -0.044540524 -0.043447934 -0.034555852 0.053230315
-0.017793298 0.0055995956 0.06473178 0.040439226 -0.067396015 0.054492027 -0.017777942 -0.07319002
-0.010361932 0.009027474 0.026890486 -0.06354792 -0.0256758 -0.014448568 -0.04538018 -0.008741304
0.0723221 0.063096315 -0.0044140145 -0.0019471273 -0.08048935 0.016961217 0.025055915 -0.0680258
-0.032345172 0.052700117 -0.028583366 -0.022093995 0.0001766214 -0.033811424 -0.028703066 0.013155113
-0.080376096 -0.03875622 -0.009053975 -0.062520966 -0.06309953 -0.07815644 -0.006469159 -0.066331096
0.060354806 -0.051022213 -0.07681407 0.029410016 -0.025379911 0.04768315 -0.051422056 -0.07445994
-0.008404955 -0.06269744 -0.0022798337 0.020705327 0.017618172 0.06680263 0.026904719 0.028858867
0.010520872 -0.05909399 0.0042513954 -0.039557647 -0.006953568 -0.07172872 -0.06089545 -0.049381677
-0.046357732 0.07255973 0.075640224 0.011546982 0.013560733 -0.03722713 -0.026669063 -0.040072165
-0.03499972 -0.069235474 -0.060411718 0.07709771 -0.08305457 0.03853292 0.003660101 0.0190692
0.053022727 0.06865805 -0.06326737 -0.058160502 0.03362703 0.047769293 0.024446696 -0.03301151
-0.024387572 -0.06372838 -0.06601225 -0.061246574 0.008625154 -0.06848505 0.014778736 -0.04642646
-0.050824948 0.06605345 -0.07762483 0.059816957 -0.026894812 0.06663862 0.05189103 -0.056296535
-0.054281574 -0.006712891 -0.039440643 -0.03157085 -0.069775805 0.025214262 0.04230673 0.06601907
-0.06654569 -0.05431018 -0.07927421 -0.08149864 -0.06613828 -0.026428405 -0.05260777 -0.049557712
-0.029562347 -0.04338733 -0.0051032826 -0.0043502375 -0.017958604 -0.062875405 -0.010361806 0.031578615
0.06534618 0.025996014 -0.02005113 -0.07651006 0.01954668 0.028892726 0.06066519 -0.041706443
-0.016546905 0.013167903 -0.011633344 -0.03806142 -0.07106581 0.011151537 0.06303564 0.07679804
-0.039812118 -0.07109216 -0.021751799 0.04694937 -0.03319081 0.008541949 -0.000443995 0.055705145
-0.05013735 0.05657004 -0.00065939873 -0.02095005 -0.015697792 0.049301505 -0.07567792 0.021784589
-0.07043679 -0.080602065 0.04398693 0.034649916 -0.0038419887 0.017531775 0.019209735 -0.058470525
0.030026443 -0.009209432 0.03882593 -0.07533105 0.06651074 -0.024132356 0.039103784 0.036533713
-0.010899508 -0.078728065 0.05162728 0.016281627 0.04299335 -0.049228404 -0.0028020197 -0.06626094
0.10377775 0.05092825 0.039925285 0.013997742 0.079811424 0.053606577 -0.04589969 0.061678823
0.036963355 0.043021318 0.05747501 -0.04192118 -0.040869072 -0.09701357 -0.06637992 0.023232663
0.046262905 0.040350597 -0.07636013 0.017656906 0.06443866 -0.009937207 -0.02684842 -0.045951862
-0.05094229 0.076681264 0.095789894 -0.033007067 -0.015666086 0.041612897 -0.02600224 0.016591901
-0.07118363 0.020790843 -0.006179459 0.050633598 -0.04981703 -0.04978112 -0.056384787 0.049099986
0.09214016 0.07839737 0.0011512421 0.03253874 -0.07687556 -0.018924234 0.07324729 -0.05757264

conv2.bias f4 [16]
00000000: 1a70 473d 663a 5d3b 563b 2c3d e600 febc
00000010: dd07 183d af1c 61bc c9b0 cdbc 16c6 6dbb
00000020: 9400 5c3d 0735 7fbd 2ac7 8c3b 1897 1c3b
00000030: 063f 2dbb 04e9 e83c c5b8 063d b765 a5bb
0.048690893 0.0033756732 0.042048775 -0.031006288 0.037116874 -0.013739749 -0.025108712 -0.0036281398
0.05371149 -0.06230643 0.004296203 0.002389377 -0.002643527 0.028431423 0.032891054 -0.0050475257

fc1.weight f4 [120, 400]
00000000: a91f 1fbd 80a3 9a3b ee07 5bbc 3573 02bd
00000010: 6b64 26bc ca7d 323c d965 343c 0052 0e3c
00000020: 7d26 3dba 3953 05bd 11b0 423b b083 c33c
00000030: 6631 073d 8bed fc3c cab3 c2bc c83d 47bd
00000040: a41e 00bb 301f 8b3c 1917 29bd f523 ae3c
00000050: 5c60 24bb cc5c dcbc 5a44 26bd d24d 933c
00000060: 568f 053d e427 3c3d 3e0a 4dbc aeb5 25bd
00000070: 0497 123d b66e bdbc 7966 fb3c 9826 353c
00000080: 3c53 24bd e108 133d 20ac 82bc 0b49 213d
00000090: 1868 493d 8163 f6bb a2de 103d 70d7 813c
000000a0: 3359 86bc d8e9 82bc f86a f2bc c37c 03bd
000000b0: a81d 45bd fd4a 42bd 22c7 943c 2cdf 0ebd
000000c0: 57e4 243d 1d62 b8bc 97d1 a1bc cd30 b63c
000000d0: 4955 f03c 3393 223d 7a45 1fbd 4a20 83bc
000000e0: d384 88bc f698 9b3c e299 39bc 5efc 1bbc
000000f0: 7645 48bc b5e9 64b9 42cd e0bc d668 25bd
00000100: 890a a73c 0366 9c3b c33d 10bc d901 c8bb
00000110: 756b 10bd 7efe 2a3c 4f8d fc3c fe2e 213d
00000120: c2dc 1f3d 5db2 3cbd 86a0 283d 9ad0 9d3c
00000130: 523f f43c 2bd0 22bd f565 373c be97 6bbc
00000140: 8d6a 3ebd 91be c23b b31e 0dbd c901 ce3c
00000150: 63ca 91bc a93d 263d c895 6fbc 4faa bdbb
00000160: 8688 a13c f055 d03b a042 19bb 007f 263c
00000170: ae57 963c 0740 9bbc acda 2d3c 6cc9 36bc
00000180: e86d 44bc c820 7bbc b8f5 59bc 075b 2d3d
00000190: 0239 25bc 166f 893c a2f7 35bb cb38 efbc
000001a0: e3d9 1fbd 7b06 dfbc 9fed cd3b 5a24 c5bb
000001b0: ca10 333d 0d23 59bc 242e 013d f960 da3c
000001c0: 7488 11bd a77c d73c d3ff 013c 0169 0d3d
000001d0: 8685 e9bb 3778 51bd f04d 52bc f341 1c3d
000001e0: 6bae 083d 49e8 f43c 70e4 bd3c eadc dbbc
000001f0: d92c 25bd 432f f4bc 0e56 233c b194 fbbc
00000200: 3112 f73b 83fb f03c d187 ea3c 99f9 3e3d
00000210: 5649 1e37 d64c 593c cb04 d9bc eac1 ae3c
00000220: d215 31bd ce00 60bb d79f 13bd 32b8 a63b
00000230: a07d 253b d1d8 09bd 255d ccbc be02 46bd
00000240: 536c 133d 9042 993c 07e1 673c 5156 373d
00000250: 7ea8 233d a4b6 2d3d ba60 1abd 0a2c b0bc
00000260: aafe f6bc e36f 2dbc b963 3e3d 86f2 cc3c
00000270: 7fdf 153b 5d31 dcbc cd35 bebc f0e2 ef3c
00000280: 55b5 503d 8782 243d ad80 f7bc 7db5 013b
00000290: 876b c8bc fe4f ee3c a459 163d d640 10bd
000002a0: c21e 0a3d 89a3 0cbc 7716 fbbc a91e ae3b
000002b0: 4d96 8dbc 1cc4 a23b facb c0bb e8f1 053d
000002c0: 8cff 9b3c 95ae 1cbd c361 d5bc 6c65 adbc
000002d0: d778 08bd 0f76 38bc 3162 c23c c6c2 2dbd
000002e0: a4bb 92bc ec97 283d 4d53 a1ba c2fd 20bc
000002f0: 08f2 d03c da04 dfbc 5db5 19ba 441f 583c
00000300: 7b0c 0cbd 5ba4 193d 85bc c13a c354 76bc
00000310: 7006 9fbc 537a 25ba 8568 2ebd 1896 3f3d
00000320: cf23 d03c 1b74 acbc 6e73 7cbd f743 54bc
00000330: d101 383c 6d3d 833c 43fd 4b3c 0d9e b1bc
00000340: be15 383c 3d40 0ebd 56b3 2f3d 9785 0abd
00000350: a018 0cbb 0838 4f3c dc2b 78bc 0602 0e3d
00000360: f912 263c 3ceb fbbc ce8f c5bb e437 26bd
00000370: d205 dc3c d3f4 d73c 7286 babb 5bf0 3a3d
00000380: 2c95 e03b a3d8 2d3d b38a acbc 80ba ffbc
00000390: 404d 173a a74d 42bd 00e6 aabb 2c86 323c
000003a0: 9069 c73b 6abb e73c 55c4 0ebd f2c3 38bd
000003b0: 3225 833c ca66 1fbd d042 b73b 80b1 ce3b
000003c0: d74d 3cbd bb15 053d 0a3b c43c da1e d43c
000003d0: 2041 2bbb 11de 1d3d 0a2d eb3c 9f18 113d
000003e0: 95ac 4bbd b74d b6bc 4d6d a8bc 784a 273b
000003f0: 71b7 013d 12df d83c 98ef b83c bc65 933c
-0.038848553 0.0047191978 -0.01336859 -0.03184815 -0.010155777 0.010894248 0.0110106105 0.0086865425
-0.0007215513 -0.03255007 0.0029706995 0.023866504 0.033006094 0.030874988 -0.02376737 -0.048642904
-0.0019549513 0.016982645 -0.041281793 0.02125738 -0.0025081849 -0.026899718 -0.04059253 0.017981444
0.0326074 0.04593648 -0.012514649 -0.040456466 0.03578855 -0.02312408 0.030688511 0.011056565
-0.04011844 0.03589714 -0.015951216 0.0393763 0.049171537 -0.007519186 0.03536857 0.015849799
-0.016399955 -0.015980646 -0.029592022 -0.032101404 -0.048123986 -0.047434796 0.01816136 -0.034880802
0.040256824 -0.022507722 -0.01975326 0.022240067 0.029337542 0.03969116 -0.038884617 -0.016006608
-0.016664898 0.018993836 -0.011328192 -0.009520618 -0.012223592 -0.00021830837 -0.027441625 -0.040383182
0.020390766 0.004772903 -0.008803788 -0.006103736 -0.03525873 0.010436652 0.0308291 0.039351456
0.03902889 -0.046068538 0.041168712 0.019264508 0.02981535 -0.039749306 0.011193742 -0.01437944
-0.046488333 0.0059431274 -0.034453105 0.025147336 -0.0177967 0.040586147 -0.014623113 -0.0057881246
0.01971842 0.006357901 -0.002338566 0.010162115 0.018352356 -0.018951429 0.0106112175 -0.011156421
-0.011989094 -0.01532764 -0.013303213 0.04232314 -0.0100843925 0.016776603 -0.002776601 -0.029201886
-0.039026152 -0.02722477 0.00628443 -0.0060162963 0.043717183 -0.013252986 0.031538144 0.026657568
-0.035530522 0.026304556 0.007934528 0.034523968 -0.007126513 -0.051140036 -0.012835965 0.03814883
0.033369463 0.029895918 0.023180217 -0.026838738 -0.040325973 -0.029807692 0.0099692475 -0.03071055
0.0075400104 0.029416805 0.028629215 0.046624754 9.434609e-06 0.013262948 -0.026491543 0.0213327
-0.0432337 -0.0034180167 -0.036041107 0.0050878758 0.002525188 -0.033654038 -0.024946759 -0.04834246
0.035991978 0.018708497 0.014152772 0.044760052 0.03995561 0.042410508 -0.037689902 -0.021505374
-0.03015073 -0.010585758 0.04648182 0.025017988 0.002286881 -0.026879007 -0.023219014 0.029283017
0.05095418 0.040163543 -0.030212725 0.0019792013 -0.024465336 0.029090878 0.03670658 -0.035218082
0.03372074 -0.008583912 -0.03065036 0.0053137136 -0.017283583 0.0049672257 -0.005883691 0.032701403
0.019042753 -0.038252432 -0.026047593 -0.021166526 -0.033318367 -0.011258616 0.023728462 -0.04242208
-0.01791174 0.04116051 -0.0012308151 -0.009826126 0.025506034 -0.027223993 -0.0005863512 0.013191048
-0.03419159 0.037510257 0.0014780915 -0.015034857 -0.01941225 -0.0006312478 -0.042580146 0.046774
0.0254077 -0.021051457 -0.06163352 -0.012955657 0.011230902 0.016020501 0.012450519 -0.02168181
0.0112356525 -0.03472923 0.042895637 -0.033818807 -0.0021376982 0.012647636 -0.015147176 0.0346699
0.010136359 -0.030751817 -0.0060291057 -0.040580645 0.026858244 0.026361858 -0.0056922967 0.045639377
0.00685372 0.04244293 -0.02106223 -0.03121686 0.0005771704 -0.047437336 -0.0052154064 0.010896247
0.006085582 0.028287608 -0.034855206 -0.045108743 0.016008947 -0.038916387 0.0055926815 0.0063077807
-0.04597267 0.032491427 0.023953933 0.025893617 -0.0026131347 0.038541857 0.028708 0.03542387
-0.049725134 -0.022253854 -0.020559931 0.0025526565 0.031669084 0.026473556 0.022575185 0.017992847

fc1.bias f4 [120]
00000000: 97e1 0a3d 9a84 2c3d 683a c63b b7ce 2d3d
00000010: 35ea 58bd 70fb 3cbd 1287 7cbb a882 953d
00000020: 776a d5bc 5a39 f13c 1749 90bc 6148 36bd
00000030: ca28 17bd bdbf 393d 0920 b0bc 9370 fcbc
00000040: eb20 143d 097e 303d 7034 51bd e925 29bd
00000050: 97f7 ab3c bbc0 4f3d 2c5e e73c cd97 013b
00000060: f2c0 573d 010b 163d 93c0 31bd 9a4f 0c3d
00000070: 9746 c1bc 1d7e 35bb 157a 7e3c b24a 013d
00000080: 110b 25bd ed64 463d 4276 6f3c a3fd 8d3c
00000090: c3fc 22bd ae4e 39bc ff89 36bb 0214 533c
000000a0: d99e ff3c ec05 87bc dd21 b93b 6066 2139
000000b0: b69d 0a3c 4ba4 8f3c 8eb1 3abd e712 21bd
000000c0: 4ac0 7ebb b7b9 143d eaae 9d3c 69b2 aa3c
000000d0: 0e08 203c a74b 3a3d 0f38 923d 6046 683c
000000e0: 1fa2 2ebb f0d7 ff3c e9ba 4bbc cd42 4dbd
000000f0: 30d6 b93c 709f ea3c f1d0 c93c 0e86 cbbc
00000100: c84a ee3c dfdb 5b3d 203f 563b 7c87 08bd
00000110: 4aaf a7bc e05e 383d 229e 003d f33c 04bd
00000120: 6b83 c7bc d3f7 22bb 44f1 68bc 62e7 f1bb
00000130: 6280 0ebd 256e 4f3d db16 d1bc df0c 31bd
00000140: aaea 20bd edd1 a9bc 8930 f33b 8898 343c
00000150: 848e 1f3d 6f7a 493d e43b 983c f8ef 25bb
00000160: fe1e dcbc 72b2 0c3d 821e 06bd 49d5 78bd
00000170: f30b 723c a927 bebc 9e24 863d b685 583d
00000180: 377a 7a3c 920d 9b3b 59ec eabc 895a d83c
00000190: 9520 00bd 1b32 0bbd 5b43 01bd 9122 c93b
000001a0: d637 f43c df17 0f3c eca6 eabc ab6b 8bbc
000001b0: 263a 2abd 3c64 53bd cae5 083d fd45 0bbc
000001c0: cb38 0dbd b434 39bd 9d2f d2ba 5ef0 df3c
000001d0: 62b7 04bd da78 193c 40f8 06bc f8da 003b
0.033906545 0.042118646 0.006049443 0.042433467 -0.052957732 -0.046138227 -0.0038532657 0.07300311
-0.026051743 0.029446293 -0.017612977 -0.04450262 -0.036904134 0.04534887 -0.02149965 -0.030815398
0.036164206 0.043088946 -0.0510754 -0.04129592 0.020992083 0.05072091 0.028243147 0.0019774318
0.05267424 0.036631588 -0.043396544 0.0342556 -0.02359323 -0.0027693578 0.015532036 0.031565376
-0.040293757 0.048436094 0.014615597 0.017332857 -0.039791834 -0.011310263 -0.0027853248 0.012883188
0.031203674 -0.016482316 0.005649789 0.00015392294 0.008460453 0.017534396 -0.045579486 -0.039324667
-0.0038871937 0.036309924 0.019248445 0.020837026 0.009767545 0.045482304 0.071395986 0.014176935
-0.0026646925 0.031230897 -0.0124347 -0.050112534 0.02268514 0.028640479 0.024635764 -0.024844196
0.029088393 0.053676482 0.0032691434 -0.033332333 -0.020469327 0.045012355 0.031400807 -0.03228469
-0.024354657 -0.0024866953 -0.014217678 -0.0073823193 -0.034790404 0.05064215 -0.025523594 -0.043225165
-0.039286293 -0.020729983 0.0074215573 0.011022694 0.038954273 0.049189027 0.018583246 -0.0025320034
-0.026870247 0.034349866 -0.03274394 -0.06075028 0.014773357 -0.02321227 0.06549953 0.05286189
0.015287927 0.0047318423 -0.028677152 0.026410358 -0.031281073 -0.03398333 -0.031558376 0.006138154
0.02981178 0.008733719 -0.028644048 -0.017019114 -0.04155936 -0.051609263 0.03342227 -0.008500573
-0.03447799 -0.045216277 -0.0016035918 0.027336296 -0.03240145 0.009367192 -0.008237898 0.0019661766

fc2.weight f4 [84, 120]
00000000: 28ca 893d cc21 403d 391d 49bd 104d 6e3d
00000010: a0a7 863b b54f a8bd 1a11 92bd 0452 91bd
00000020: b4d8 9c3c 0942 3ebd d622 9f3d 73b7 1dbd
00000030: 0858 8fbd c7ee abbd b0b0 be3c 805d b3bd
00000040: f05a 0d3c 8c7a 9c3d d009 133d 811d adbd
00000050: aad1 b73d 72d0 0ebd a03b 56bb ac74 6c3d
00000060: 3fe5 b1bd 964a 94bd 786f 97bd e01e ddbc
00000070: 04ff 2d3d ac5f 833d 4002 0d3d a498 8fbd
00000080: 609d 1a3b 5280 b43d 6c90 98bd cc75 3cbd
00000090: 9dca a8bd 3b73 2abd e07d 5a3d a035 083b
000000a0: fa5f 913d c8d6 9a3d 30c5 913c 8055 a3bb
000000b0: 7b2d 64bd fa4c a23d 9032 383d 74cf 173d
000000c0: f861 01bc b0c8 1f3d 0c1d ee3c 925e f9bc
000000d0: 2067 45bc 34c3 fb3c da52 a33d 9a8f 923d
000000e0: e43d a5bc a060 b1bc ecfc 603d 1022 2d3c
000000f0: 684c 153c f853 68bc 20f7 8b3c b412 57bd
00000100: b86f 903c a834 123d f05b 5d3c 37aa 61bd
00000110: ec2a 533d b0a0 50bc 8014 6fba faf9 a43d
00000120: 13ae 69bd 6042 19bc 90c3 2a3d d942 35bd
00000130: ccc3 183d 6cf2 813d 6127 50bd 38a5 923d
00000140: 90e3 793d 8404 a1bd 50a2 2c3c 5051 eabb
00000150: 8451 573d f40f 093d 0a76 f8bc 7bac a7bd
00000160: 320e 9e3d 78ca 78bd 2829 b7bc 6caa 893d
00000170: 287c 543c 7cd9 0f3d a220 97bd 9895 04bc
00000180: bcbc a4bc 6841 ba3d 28c8 7b3d d096 54bc
00000190: 24d4 b0bd ea74 863d b83a bfbc c043 683c
000001a0: d075 19bc 4973 abbd 6672 9abd 31ef 6bbd
000001b0: 3046 ab3d ec7e ba3d a5de 0cbd b455 773d
000001c0: 1e85 95bd c40c 7abd 90e3 1c3d fcc3 8abd
000001d0: 8026 4e3d 0672 8a3d e819 0b3d 0011 ccb9
000001e0: 945d 33bd a8ea 0e3d 1045 a43c e8be 77bc
000001f0: 123a 8dbd d014 8dbb 9960 97bd 3a54 a83d
00000200: d8b0 3f3d b5fd 13bd 9a44 a9bd 319b 63bd
00000210: 2486 94bd 182e 9fbc bf9a 27bd 441b 97bd
00000220: 395e 80bd 9c61 833d 1352 28bd 189e 823c
00000230: 28a9 973c e4f8 4a3d 455f 45bd b4a9 b0bc
00000240: b8c3 eabc 7384 4dbd a0ff 4ebb 0003 d23c
00000250: 7251 9fbd 0064 ccba 805c 633b 0c7c af3d
00000260: c6fe f7bc 6818 82bd f659 2cbd fc97 503d
00000270: 0f5f b6bd 552a b0bd 8035 37bb 7ced 8bbc
00000280: 285f b1bc 0071 fdbc d003 90bb 865e 32bd
00000290: 4cc8 c1bc 99d7 abbd 8c91 4c3d b4dd 1d3d
000002a0: 4ef9 873d 78c3 d9bc 4998 b4bd eeb6 943d
000002b0: e69f 84bd d8d5 c6bc 20e1 4cbb c3bf 85bd
000002c0: 9a3e 923d 4b34 72bd 7f7a 0dbd 60ff c73b
000002d0: 78de bdbc 6b2f b2bd 30b1 843d 9646 7dbd
000002e0: 227d ae3d 60ff 923d 106a e7bc a6bd 92bd
000002f0: 6cf0 a93c c41b 3c3d b2a9 19bd 98e7 7b3d
00000300: c066 f2ba 6bf1 8cbd 8053 353d 6008 f9bc
00000310: a03f b5bd 8877 853d ec51 343d 5571 68bd
00000320: f897 523d 7505 87bd 3088 143d e004 c1bc
00000330: 0075 75ba 203a 783c 6e64 2abd 2034 babb
00000340: 8082 13bc 96af 0cbd a017 a3bd 6604 a33d
00000350: 5c2c 3a3d fec1 b83d a0c7 15bd 5848 2fbc
00000360: 6c72 a63d 04bf 0d3d c0e0 f1ba f413 c5bc
00000370: 0062 f239 1065 bdbc ea2d a83d 42c6 9a3d
00000380: c77f a2bd 40e2 2d3d 848a 88bc b4c4 543d
00000390: d820 9b3d 984f 62bd 3ca0 96bd a48b 32bd
000003a0: 9e0c b6bd 4016 a83d 4e6b 8c3d 00e0 96bc
000003b0: 0c5d 03bd c4c2 82bc c045 5b3d 2437 ed3c
000003c0: ba0d 843d 8985 66bd 9f9a a7ba 8483 a03d
000003d0: fc96 9c3d 0ce6 773c 4ac5 1e3d 0e53 9d39
000003e0: 885c 7bbc d466 90bd 4f47 7dbd 3e6e b2bd
000003f0: cac8 423c f33a 89bd 0f06 043d f087 babc
0.06728011 0.04690723 -0.049100135 0.05817896 0.004109338 -0.08218328 -0.07132168 -0.07095721
0.0191463 -0.046449695 0.07770316 -0.03850503 -0.069992125 -0.083951525 0.02327761 -0.08758068
0.008627638 0.076405615 0.03589803 -0.08452893 0.08975537 -0.034866758 -0.0032689348 0.057728454
-0.08686303 -0.07240789 -0.07394308 -0.026992261 0.04247953 0.06414732 0.034425974 -0.07011536
0.0023592338 0.08813538 -0.07449421 -0.046010777 -0.082417704 -0.0416138 0.0533427 0.0020783916
0.07098384 0.075604975 0.017794222 -0.0049845576 -0.055707436 0.07924838 0.044970095 0.037063077
-0.007896893 0.03900975 0.029066585 -0.030440602 -0.012048513 0.030732729 0.07974787 0.07156296
-0.020171113 -0.02165252 0.054928705 0.010567203 0.009112455 -0.014180176 0.017085612 -0.05250807
0.017631397 0.03569475 0.013510689 -0.05509397 0.051554605 -0.012733623 -0.0009120181 0.08055492
-0.057050776 -0.009354204 0.04169041 -0.044253204 0.0372961 0.063450664 -0.050818805 0.07160419
0.061008036 -0.078621894 0.010536745 -0.0071508065 0.052567974 0.03346248 -0.030329723 -0.08187195
0.07717551 -0.060739964 -0.022358492 0.067219585 0.012969054 0.03511952 -0.07379271 -0.008092307
-0.020109527 0.090945065 0.06147018 -0.01297541 -0.086342126 0.06565268 -0.023343429 0.014176309
-0.009366468 -0.08371598 -0.07541351 -0.057601158 0.083629966 0.0910624 -0.034392018 0.060384467
-0.07300781 -0.06104733 0.038302958 -0.06775662 0.050329685 0.067600295 0.033960253 -0.00038922578
-0.043790415 0.034891754 0.020052463 -0.015121199 -0.06895842 -0.0043054596 -0.073914714 0.0821919
0.04679951 -0.036130626 -0.08265038 -0.055567924 -0.07252148 -0.019431159 -0.04091906 -0.073782474
-0.062679715 0.06415102 -0.041093897 0.015944526 0.018513277 0.049553767 -0.04818656 -0.021565296
-0.02865778 -0.05017514 -0.003158547 0.025636196 -0.07779206 -0.0015593767 0.0034692585 0.08568582
-0.030272853 -0.063523114 -0.04207798 0.050926194 -0.0890485 -0.08601824 -0.0027955472 -0.017081015
-0.02165182 -0.030937672 -0.0043949857 -0.043547176 -0.02365508 -0.08390731 0.04994349 0.03854151
0.06639348 -0.026582465 -0.088181086 0.072614536 -0.06475811 -0.02427189 -0.0031262115 -0.06530716
0.071408466 -0.0591319 -0.03454065 0.006103441 -0.02317737 -0.087004505 0.06479108 -0.061834894
0.08519961 0.07177615 -0.028248817 -0.07165079 0.020744525 0.045924917 -0.03751535 0.061500162
-0.0018493757 -0.06881984 0.044269085 -0.030399501 -0.08850026 0.065169394 0.04402344 -0.056748707
0.05141446 -0.06592838 0.03626269 -0.023561895 -0.00093634427 0.015150577 -0.041599683 -0.0056824833
-0.009003282 -0.03434714 -0.079634905 0.07959823 0.04545246 0.09021376 -0.03656733 -0.0106984
0.08127293 0.034605995 -0.0018453822 -0.024057366 0.00046230853 -0.02311948 0.082118824 0.07557346
-0.07934528 0.042452097 -0.016667612 0.051945403 0.07574624 -0.055251688 -0.07354781 -0.043590203
-0.08889125 0.08207369 0.06856404 -0.018417358 -0.03207116 -0.015962012 0.053533316 0.028956957
0.06447931 -0.056279693 -0.001278717 0.078375846 0.076459855 0.015130531 0.03876237 0.00030007254
-0.015341885 -0.07050863 -0.061835583 -0.08712433 0.011888692 -0.06700697 0.03223234 -0.022769898

fc2.bias f4 [84]
00000000: ba37 36bd 841b 6abd 17e5 523d 7f06 e3bc
00000010: c83f 86bd a2e7 4bbd aa72 6cbc 7995 383d
00000020: 93fb b5bd 3f1f 813c 34b7 6ebd de4b b3bc
00000030: 939c 46bc dce0 393d 4ae4 8cbd 2f19 57bd
00000040: 4dc8 6ebd deeb d4bc fe10 a3bd 449f e13c
00000050: 34d1 8fbd 16e4 12bd 1ee8 4fbd 2faa a2bc
00000060: 70ca 9dbc a535 39bc bfc3 bbbc 2049 b2bd
00000070: b0c0 12bc b14e 42bd 7033 983d 49d9 803d
00000080: 625b 2abd 6526 97bd 6420 c2bc 1808 6dbd
00000090: 90a0 943c 248b 2b3b 3d38 8ebc 88e5 38bc
000000a0: 4298 343d 6376 133d b1a0 b5bd 6c8d 0fbd
000000b0: 764d f3bc db5f 58bd a44d a73d 7442 89bc
000000c0: 6854 943b f307 9a3d e415 fa3b 00bc 533b
000000d0: 5278 74bb d801 653b bb92 b8bd 63a8 203d
000000e0: dde7 493d 908c 38bd 0ccb 7ebc 8670 1ebd
000000f0: 3407 96bd 361e 883b 640d ce3c 45a6 96bd
00000100: 8cfb 303d 79a5 4bbc 8c3c 143d 544d 5abd
00000110: 1865 203d fa6a 12bd 86b6 89bc 92d3 b7bc
00000120: 1713 7abd 28fc 753a b70a bfbc fb82 cbbd
00000130: b69c 63bd 7a17 abbd c88d ef3a 902c 0fbd
00000140: 3f6a 0f3a 6f97 86bd 9aa4 83bd 2648 4dbd
-0.04448674 -0.057155147 0.05148801 -0.027713059 -0.06555134 -0.04978145 -0.014431635 0.045064423
-0.088858746 0.01576197 -0.058280185 -0.021886762 -0.012122291 0.04538046 -0.0687948 -0.05251425
-0.05829649 -0.025991376 -0.079622254 0.027541764 -0.07022324 -0.03586205 -0.050758474 -0.01985654
-0.019261569 -0.011304294 -0.022920487 -0.08705354 -0.008957073 -0.047438327 0.07431686 0.06291444
-0.041591056 -0.0738037 -0.023697086 -0.057869047 0.018142968 0.0026175464 -0.0173608 -0.011285193
0.044090517 0.036001574 -0.0886854 -0.03504698 -0.029700022 -0.05282579 0.08169106 -0.01675532
0.0045266636 0.075210474 0.007632004 0.0032308102 -0.0037303162 0.0034943726 -0.090123616 0.039223086
0.049293388 -0.045055926 -0.01555134 -0.03868153 -0.07325593 0.004153992 0.02515287 -0.07355932
0.043208644 -0.0124295885 0.036190554 -0.053296402 0.03915891 -0.035746552 -0.016810667 -0.022439752
-0.06105336 0.00093835825 -0.023320539 -0.09937092 -0.055569373 -0.08354087 0.0018276507 -0.034954607
0.0005470849 -0.065718524 -0.0642788 -0.050117634

fc3.weight f4 [5, 84]
00000000: 7562 cfbd 3ef7 03bd 7a55 fd3d 7c97 bcbb
00000010: 244f b43d e95e 483b 3069 513b ae4d b03c
00000020: 879e 833d f42f 4fbd cc71 51bd bd4b c6bd
00000030: 9a2f c33d 051d f23d c06a cdbd 3637 a83d
00000040: 9713 8f3d a1e9 373d 96a5 723c cd4d b73d
00000050: 412c a8bd d621 dabd dfe4 8fbd b809 48bd
00000060: f076 9bbd e788 8c3d e02c 84bd 26d1 103d
00000070: 27f5 57bd 3432 983c fb39 343e dc77 a0bd
00000080: 63ac c2bd 3c17 99bd 2e06 a4bc 8b57 afbd
00000090: c269 003d 25ca 9bbd 8a36 ccbd 0624 a03c
000000a0: b9c9 d93d eb11 b83d bfdf 8ebd 1b0a 25b9
000000b0: f1ca ba3d 15b0 a3bd 0db9 443e 1160 303c
000000c0: 20d8 26bc b65b 393d 3ad1 483d 0faa bd3d
000000d0: a3b3 37bd 2672 85bd c314 8cbd 3ddb 4a3e
000000e0: e2bb c93d 6018 0cbb bfb6 f1bc b368 6dbd
000000f0: d709 96bd 9815 c0bd 35f3 923c 690d da3d
00000100: 388c 9cbb 5f51 c7bd 317b 43bd bf43 a1bd
00000110: fbf3 143e 5df9 d3bc f6ca a9bd 128d 413d
00000120: d5e8 803c ff87 afbb 5f32 6ebd c21b ea3c
00000130: dc11 d4bd 6ed3 013d 1408 1bbd 0311 b23d
00000140: 1494 20bd 65cf de3d f7fa 66bd 1bb7 033c
00000150: 0ade 0b3d bac3 15bd 6927 d5bc 9ab9 c03c
00000160: 6fe4 b5bd 7702 2ebd 5d59 93bc 7d6a dcbd
00000170: 601a 4dbd b4da 03bd b99a 3b3d 2c08 8b3d
00000180: 248b 8a3c a99f c6bc 2c49 d7bd c8fd 1dbc
00000190: f5e3 c93b d7ca 1ebc eb27 d6bd 5cb5 ff3b
000001a0: f5b6 d8bd 43ea b93d 4ce2 f63c 4783 1c3b
000001b0: d6f5 b5bc b03a f7bc 6144 bd3d ab42 bc3d
000001c0: 51de 05bd 197c 55bd c9e6 bdbd da6c fc3d
000001d0: eb4f d03d 280b 89bd d789 863c 8f76 55bb
000001e0: 1054 d4bd 787d 1a3c 803d 243c 6ec6 5dbd
000001f0: 1cf3 f8bd d96d cebd 5aed d3bd 4fb1 493d
00000200: 7e41 9cbd ee1a 223d 644b 4fbd 5d5e 8c3b
00000210: 31b4 8d3d 4d36 fcbc f316 e93c 2986 b5bb
00000220: 8011 b9bb 84a7 69bc cc19 c9bd f079 ddbd
00000230: ae96 4f3c df55 6fbd d94e bf3c 4607 d63a
00000240: dd80 cf3d 2416 07bd 25ab 153d 5d5d ac3d
00000250: 743b e63b 1d1c 733d 53f8 c13d bc9b 84bd
00000260: 595f 143d 502b ba3b 4d3b 28bd 9e3e 163d
00000270: 5adb 88bd d42f 7b3d 2e50 c0bc 6e08 d63c
00000280: 3cbd 56bb 5011 c2bc 784b 053d 6ffa 933d
00000290: b6c8 c3bd a89f c8bc ae57 a9bd 92be 523d
000002a0: e235 1fbd 72c0 033d 86ab 31bc 40a6 a2bd
000002b0: 6b21 e73c cda6 54bb aa58 993d d9a6 503c
000002c0: 7cae a53c 1adf cabc 2088 193d f2b4 503d
000002d0: 8ee9 c13d f3c3 eb3c d2fb 92bd 2c4e adbd
000002e0: 9f45 db3d 75a3 a7bc 7efd 76bc f89c 083d
000002f0: 0af8 6fbd aea6 6e3d e118 48bd 1eb1 90bd
00000300: a672 d4bc 6b6b cd3d 23ea 293d 62b8 5f3d
00000310: 7fd7 b9bc 65c8 9abd 64b6 db3d ddfc 9ebd
00000320: 0811 c53d 4e24 663d c0bd b5bd c26b 04bd
00000330: 9c2b 5abd e6a2 ce3d 5ce0 7e3d 7812 1e3d
00000340: 0f36 eebc 523b 873d a892 bebd bca2 5f3c
00000350: dcfc b9bd fc52 bdbd 7c45 a23d 9672 7abd
00000360: 94a6 133d b702 9b3d 0e3f 2c3d bb23 e83c
00000370: b1f8 b6bd 9ebf 453d 3001 0ebc 96e4 0f3e
00000380: 6cad ae3d 00b0 4038 7468 37bc afbe 41bd
00000390: e938 b83b 46db 263d d11e 303c a02a 333b
000003a0: 9533 053d 4673 163d f668 613c 6138 943d
000003b0: 007a 0f3d 1734 b53d c7cd d73a 584f 883d
000003c0: 04ee c13d 87c5 28bd 657a aa3d 7738 203d
000003d0: 19b4 a2bd fbef 9bbd 791c 43bd 3f23 c3bd
000003e0: 7981 87bd 5ef5 a7bd 8029 96bb 0305 70bd
000003f0: f641 153d 0047 3c3c 0274 17bd 1daf 2bbd
-0.10126201 -0.03221821 0.12369819 -0.005755363 0.088041574 0.003057415 0.0031953566 0.021521416
0.06426721 -0.05058284 -0.051133916 -0.09682415 0.09530564 0.11821941 -0.100301266 0.08213656
0.06986158 0.04490054 0.014809987 0.08950386 -0.08211566 -0.10650985 -0.070260756 -0.048837394
-0.07591045 0.068620495 -0.06453872 0.03535571 -0.05272403 0.018578626 0.17600243 -0.07835361
-0.095055364 -0.07475135 -0.020022478 -0.08561619 0.03135086 -0.076069154 -0.0997134 0.019548427
0.10634179 0.089877926 -0.0697627 -0.00015739391 0.09120739 -0.07992569 0.19211216 0.0107650915
-0.010183364 0.045253478 0.04902766 0.09260952 -0.04484905 -0.06515913 -0.068398975 0.19810195
0.09850289 -0.0021376833 -0.029506085 -0.057961177 -0.073260956 -0.09379119 0.017938236 0.10647089
-0.0047774576 -0.09732317 -0.047724906 -0.0787425 0.14546196 -0.025875742 -0.08290665 0.047253676
0.015736023 -0.005356788 -0.058153506 0.02857769 -0.10354969 0.031695776 -0.0378495 0.08694651
-0.03920372 0.10879401 -0.056391682 0.008039261 0.0341473 -0.036563613 -0.026019769 0.023526002
-0.08881461 -0.04248282 -0.017986948 -0.107624985 -0.05007398 -0.032190993 0.045801852 0.06788668
0.01691205 -0.024246054 -0.10512003 -0.009643026 0.006161208 -0.0096919155 -0.104568325 0.007803602
-0.10581771 0.09077885 0.030137204 0.0023881958 -0.02221195 -0.030179352 0.09241558 0.091924034
-0.03268272 -0.052120302 -0.092725344 0.12325449 0.10171493 -0.06691581 0.016423149 -0.0032571887
-0.10367596 0.009429328 0.010024428 -0.054144315 -0.121557444 -0.100795455 -0.103480056 0.04924136
-0.07629679 0.039576463 -0.050609007 0.00428371 0.069191344 -0.030787611 0.028453326 -0.005539675
-0.005647838 -0.01426113 -0.098193735 -0.10814273 0.012670202 -0.058431502 0.023353027 0.0016329072
0.101320006 -0.0329801 0.03654017 0.08416245 0.0070261303 0.059352983 0.09471192 -0.064750165
0.036223743 0.005681433 -0.04107218 0.03668081 -0.06682463 0.06132491 -0.023475733 0.026127066
-0.00327666 -0.023689896 0.032542676 0.07225501 -0.09559767 -0.024490193 -0.08268677 0.051451273
-0.038869746 0.032165952 -0.010844117 -0.07941866 0.028214177 -0.0032448054 0.074876145 0.012735092
0.020224802 -0.024764586 0.037483335 0.050953813 0.09468375 0.02877996 -0.07176937 -0.08462176
0.107066385 -0.020463685 -0.015075086 0.033352822 -0.058586158 0.058264427 -0.04885185 -0.070650324
-0.025933575 0.10030254 0.041483056 0.0546192 -0.022685764 -0.075577535 0.107281476 -0.077630736
0.09622389 0.056186967 -0.088740826 -0.03232933 -0.053264245 0.10089664 0.062225685 0.038591832
-0.029078512 0.06603111 -0.09305316 0.013649639 -0.09081432 -0.09244344 0.07923409 -0.061144434
0.036047533 0.07568877 0.04205232 0.02833735 -0.08934153 0.048278444 -0.008667275 0.14052042
0.08529171 4.594028e-05 -0.011194337 -0.04730099 0.0056220186 0.04073646 0.010749535 0.002733864
0.032519896 0.036731027 0.013757935 0.07237316 0.035028458 0.08847826 0.0016464525 0.066557586
0.09469226 -0.041204 0.08324126 0.03911635 -0.07944507 -0.07614132 -0.047634576 -0.09528207
-0.06616492 -0.08201097 -0.004582584 -0.05859853 0.03643986 0.011491537 -0.036975868 -0.041915048

fc3.bias f4 [5]
00000000: 0b96 333f acd4 82be 5af2 5abd 2c2a 9ebe
00000010: fc08 7ebd
0.7015082 -0.2555288 -0.05345378 -0.3089155 -0.062020287
